DCTVisionTransformer(
  (tokenizer): DCTTokenizer(
    (y_mid_mlp): Sequential(
      (0): Linear(in_features=28, out_features=32, bias=True)
      (1): GELU(approximate='none')
      (2): Linear(in_features=32, out_features=16, bias=True)
      (3): GELU(approximate='none')
      (4): Linear(in_features=16, out_features=14, bias=True)
    )
  )
  (pos_embed): Learnable2DPositionalEmbedding()
  (pos_drop): Dropout(p=0.0, inplace=False)
  (blocks): ModuleList(
    (0-5): 6 x Block(
      (norm1): LayerNorm((64,), eps=1e-06, elementwise_affine=True)
      (attn): Attention(
        (qkv): Linear(in_features=64, out_features=192, bias=True)
        (q_norm): Identity()
        (k_norm): Identity()
        (attn_drop): Dropout(p=0.0, inplace=False)
        (norm): Identity()
        (proj): Linear(in_features=64, out_features=64, bias=True)
        (proj_drop): Dropout(p=0.0, inplace=False)
      )
      (ls1): Identity()
      (drop_path1): Identity()
      (norm2): LayerNorm((64,), eps=1e-06, elementwise_affine=True)
      (mlp): Mlp(
        (fc1): Linear(in_features=64, out_features=256, bias=True)
        (act): GELU(approximate='none')
        (drop1): Dropout(p=0.0, inplace=False)
        (norm): Identity()
        (fc2): Linear(in_features=256, out_features=64, bias=True)
        (drop2): Dropout(p=0.0, inplace=False)
      )
      (ls2): Identity()
      (drop_path2): Identity()
    )
  )
  (norm): LayerNorm((64,), eps=1e-05, elementwise_affine=True)
  (head): Linear(in_features=64, out_features=100, bias=True)
)